checkpoints/graphunet/model-0.pkl (torch_old, 63260 bytes, 48 tensors)

module.A_0 f4 [29, 29]
0	0x413d552d	11.833295
1	0x4133473e	11.204893
2	0xbf87aab8	-1.0598974
3	0x400515c5	2.0794537
4	0xbf8cb742	-1.0993426
5	0xbdca5999	-0.09880371
6	0xc00ec734	-2.2309084
7	0x3e00ed58	0.1259054
8	0x3fbfc9cf	1.4983462
9	0x3de6824a	0.112553194
10	0xc01a2099	-2.4082396
11	0xbf9558c6	-1.1667717
12	0x3f178ee3	0.592024
13	0x4093b03a	4.615262
14	0xbf7f975f	-0.9984035
15	0x3e13637a	0.14393416
16	0x3f595fd3	0.8491184
17	0x3f9b5680	1.2135773
18	0xbe1d8589	-0.15382971
19	0x406637b6	3.5971503
20	0xbfe8482c	-1.8147025
21	0xbfbc2e55	-1.470164
22	0xbf69be5b	-0.91306084
23	0x403f2e82	2.9872136
24	0x3eace87c	0.33771122
25	0x3f5007dd	0.81262
26	0x3fd90972	1.6956007
27	0xbfea20f3	-1.8291305
28	0xbf36613b	-0.7124211
29	0x4092fc43	4.5932937
30	0x41b57833	22.683691
31	0xbfd294dd	-1.645168
32	0x40424f03	3.0360725
33	0xbf99c5cd	-1.2013489
34	0x40480116	3.1250663
35	0xbff9588e	-1.948015
36	0xbf235003	-0.63793963
37	0x3ffdbd46	1.9823387
38	0x3f96b426	1.1773727
39	0xbfe7a21c	-1.8096347
40	0xbfc51233	-1.5396179
41	0x3f8f4b72	1.1194899
42	0x40518693	3.2738388
43	0xbfea52e4	-1.8306546
44	0x3f2ecf99	0.6828552
45	0x3f06008c	0.52344584
46	0xc00e9f4a	-2.2284722
47	0xbfa765b2	-1.307791
48	0x4062a1f6	3.5411353
49	0xbffd28a5	-1.9778029
50	0xbfcae323	-1.5850567
51	0xbfdeda73	-1.7410415
52	0x4007aaf8	2.11981
53	0x401475d8	2.3196926
54	0x4019e6d1	2.404713
55	0x3f93d8b3	1.1550506
56	0xc01b07eb	-2.4223583
57	0xbf8b20f6	-1.0869434
58	0x3ec0a48f	0.37625548
59	0xbf6f1526	-0.93391645
60	0x420e8c71	35.63715
61	0x403c7a3d	2.9449608
62	0xbf725712	-0.9466411
63	0xbe719e5a	-0.23595563
64	0x3e62227e	0.2208347
65	0x3f2ef636	0.6834444
66	0xbf11732a	-0.5681635
67	0xbf87de0e	-1.0614641
68	0xbf71975a	-0.9437157
69	0x3eb4b13e	0.35291475
70	0xbd825692	-0.06364168
71	0x40372204	2.8614511
72	0xbf3068b9	-0.68909794
73	0xbfa85e28	-1.3153734
74	0x3fde2e59	1.7357894
75	0xbed4f609	-0.4159396
76	0x3ea53dbf	0.3227367
77	0x3fb73764	1.4313779
78	0xbfebaf40	-1.8412857
79	0x3e34f72a	0.1767241
80	0xbefed5e8	-0.49772573
81	0x3f33fb5a	0.7030541
82	0xbe69099e	-0.22757575
83	0xbe3bcd25	-0.18339975
84	0x3ee71e57	0.45140335
85	0xbf136b23	-0.5758535
86	0x3e39bb79	0.18137921
87	0x3f24e776	0.6441568
88	0xbf3caa54	-0.736974
89	0x3eb8db79	0.36104944
90	0x4235ed86	45.481956
91	0xbde4ef3a	-0.11178441
92	0xbeae3cd1	-0.34030774
93	0x3f31fcb2	0.6952621
94	0x3f1b3a94	0.6063626
95	0xbf9ae05c	-1.2099719
96	0xbf56509a	-0.8371674
97	0xbf5a65ab	-0.85311383
98	0x3fb3faad	1.4060875
99	0xbdfefbdd	-0.12450383
100	0x3ea3d387	0.3199732
101	0x3ee1f1db	0.44129834
102	0xbf7e53d2	-0.9934665
103	0x3e0913f0	0.13386512
104	0x3f453da2	0.7704717
105	0x3f2f5ae4	0.68498063
106	0xbf4b362f	-0.7937955
107	0x3dfb90f3	0.12283506
108	0x3f840065	1.031262
109	0xbf06f85b	-0.5272271
110	0xbd80c6b5	-0.062879
111	0xbf3c2a02	-0.735016
112	0xbfa2d688	-1.272172
113	0x3f56a8e8	0.8385148
114	0x3e1efd24	0.15526253
115	0x3e4e14f5	0.20125182
116	0x3eacb757	0.33733627
117	0xbe2e50e7	-0.1702305
118	0x3f8b200d	1.0869156
119	0x3eb5085e	0.35357946
120	0x42b27fce	89.24962
121	0xbf49391a	-0.78602755
122	0x401568d7	2.334524
123	0xbe94527a	-0.28969175
124	0xc0001c51	-2.0017283
125	0xbdedbfa7	-0.116088204
126	0xbfeee777	-1.8664387
127	0x3fa3bc48	1.2791834
128	0x3dcbff12	0.0996076
129	0xbf1ac669	-0.60459
130	0x3f61fc5a	0.8827568
131	0xbeba9214	-0.36439574
132	0x380e5d87	3.3942542e-05
133	0x3fc21567	1.5162781
134	0x3fac72ea	1.3472569
135	0xbfe0798d	-1.7537094
136	0x3eb3a7b4	0.35088885
137	0x3fcd571a	1.6042206
138	0xbe52616b	-0.20544975
139	0x3f99175d	1.1960255
140	0xc054a562	-3.3225942
141	0xc045f40f	-3.0930212
142	0x3fea7572	1.8317091
143	0x3e11cdfa	0.1423873
144	0x3f91c8f0	1.1389446
145	0x3ea4b8d4	0.32172263
146	0x3a7a9778	0.0009559314
147	0xbfdcc67e	-1.7248075
148	0x3fd5e597	1.671069
149	0xbef77901	-0.48334506
150	0x41ddb1e7	27.711866
151	0x3fbcc6bc	1.4748149
152	0xc0458b6b	-3.0866344
153	0x4026b322	2.6046834
154	0x40b9b640	5.8034973
155	0x3f94be84	1.1620641
156	0xbf8a217d	-1.079147
157	0xbf559621	-0.83432204
158	0x4002b1e9	2.0421088
159	0xbf3320bd	-0.6997183
160	0x40021e8b	2.0331142
161	0xbe3e8f18	-0.18609273
162	0x3f0e3cf7	0.55561775
163	0xc009a63f	-2.1507719
164	0xbffe967d	-1.9889675
165	0x3eaac305	0.33351913
166	0xbfb4f13b	-1.4136118
167	0x3ec524a1	0.38504508
168	0x3eeea35f	0.46609017
169	0x3f97374d	1.1813751
170	0x3fe369e1	1.7766687
171	0xbf2b3bbf	-0.6688804
172	0xbeca6bff	-0.3953552
173	0xbf66683a	-0.9000279
174	0xbdc19f82	-0.09454252
175	0x3f2f3811	0.68444926
176	0xbd4f2759	-0.050574634
177	0x3efdb0e9	0.49549034
178	0xbf592f19	-0.8483749
179	0xbfc4d592	-1.5377676
180	0x422a1fa9	42.53092
181	0xc03b1fec	-2.9238234
182	0x3fed73d5	1.8550974
183	0x3cf8215a	0.03028934
184	0x3e7fed35	0.24992831
185	0xbe33fc40	-0.17576694
186	0xbf02688d	-0.5094078
187	0xbf868e7d	-1.0512234
188	0x3fabe046	1.3427818
189	0x3ff12768	1.8840151
190	0xbf75d6f9	-0.9603115
191	0x402cc139	2.6992934
192	0x3eb1007a	0.34570676
193	0xc0250143	-2.578202
194	0xbb029103	-0.001992286
195	0xbe6843e5	-0.2268215
196	0x3e2bc240	0.16773319
197	0xbec0d48e	-0.37662166
198	0x3ec91f00	0.39281464
199	0x3e7bd178	0.24591625
200	0xbd7c8439	-0.061649535
201	0x3edcf5b2	0.431562
202	0xbf12ab06	-0.5729221
203	0x3f26b223	0.65115565
204	0x3e5fca98	0.21854627
205	0x3fc73440	1.556282
206	0xbd4b97b4	-0.049705222
207	0xbfb9d534	-1.451819
208	0xbfa3d26c	-1.2798591
209	0xbf5668ab	-0.8375346
210	0x4285223b	66.56686
211	0x3ff0c5d8	1.8810377
212	0x3dc96c7d	0.098351456
213	0x3eef3e5a	0.46727258
214	0x3f892ff2	1.0717757
215	0xbfdc21aa	-1.7197773
216	0xbf3df637	-0.7420382
217	0x3fe6b0e1	1.8022729
218	0x3faba9f2	1.3411238
219	0xbf08a5ed	-0.5337818
220	0x3f7ed376	0.99541414
221	0x3fd780cd	1.6836182
222	0xbfec1258	-1.8443098
223	0xbf9a82c7	-1.207116
224	0x3e2d4dcf	0.16924213
225	0x3f6bd039	0.921146
226	0xbf459060	-0.77173424
227	0xbf90d8d8	-1.1316175
228	0xbf64aae4	-0.8932326
229	0xbe99a75e	-0.30010504
230	0x3fafacde	1.372463
231	0xbc0d80ca	-0.008636663
232	0xbe8ddb1e	-0.27706236
233	0x3f467ade	0.7753123
234	0x3fbbfbcb	1.4686216
235	0x3f4e7107	0.80641216
236	0xc0064b7b	-2.098357
237	0xbe0c1fe2	-0.13684037
238	0xbfd5825c	-1.6680408
239	0x3d13655d	0.03598534
240	0x4259bd48	54.434845
241	0xbcfefb9d	-0.031125838
242	0x3f494f27	0.786364
243	0x3eddb21c	0.4329995
244	0xbf72ef71	-0.9489661
245	0xbfa68ea5	-1.3012282
246	0x3fa17998	1.2615232
247	0x3ebadb0b	0.36495242
248	0xbea36bdb	-0.31918225
249	0x3e00801e	0.12548873
250	0x4040fc19	3.0153868
251	0xbf0d3e87	-0.55173534
252	0xbfcbea40	-1.5930862
253	0x3f19711f	0.59938234
254	0x3e94cca6	0.29062384
255	0xbf286cbc	-0.65790915

module.A_1 f4 [15, 15]
0	0x408b48de	4.352645
1	0x40533d2b	3.3006084
2	0x3fa77e39	1.3085395
3	0x3f2222ba	0.6333424
4	0xbf18859f	-0.5957889
5	0x40179ab6	2.3688178
6	0x3f1dabbe	0.6159018
7	0x3f3f1925	0.7464774
8	0x3f5185ae	0.81844604
9	0xbd4f4dc0	-0.050611258
10	0x3e8b9787	0.27264044
11	0xbe10c5fa	-0.14138022
12	0x3dc82264	0.097721845
13	0x4007669a	2.1156373
14	0x4085dfb3	4.183557
15	0x4048d7a0	3.1381607
16	0x410ebac2	8.920595
17	0x405e890a	3.4771142
18	0x3f4e5c7e	0.8060988
19	0x403d9fb6	2.962873
20	0x3f983868	1.1892214
21	0x3f5e76e8	0.86900187
22	0x3ffba9b3	1.9661163
23	0x40133983	2.3003852
24	0x40214bed	2.5202591
25	0x4095ce9e	4.681472
26	0x401230ff	2.2842405
27	0xc0430c22	-3.0476155
28	0xbef1dc52	-0.47238404
29	0xc0985b0e	-4.761115
30	0x407d58e5	3.9585507
31	0x3de297e1	0.11064125
32	0x40728239	3.7891982
33	0xbfd69b67	-1.6766175
34	0x40221612	2.532597
35	0xbfcb4b45	-1.5882345
36	0xc01391e7	-2.3057802
37	0x3f95de21	1.1708413
38	0xbfb860f4	-1.4404588
39	0x3f68685a	0.9078423
40	0x4054a534	3.3225832
41	0xbfa43fb6	-1.2831943
42	0x3eecfe4d	0.46287766
43	0x3ef8b96f	0.48578975
44	0xbfa344b9	-1.2755347
45	0x410243da	8.141565
46	0x40ea1fd6	7.316386
47	0x40d60199	6.687695
48	0x41985589	19.041765
49	0x40823b9e	4.0697775
50	0x40c01c09	6.0034223
51	0x40fb51f3	7.8537536
52	0x401a097d	2.406829
53	0x3f6a88ff	0.9161529
54	0x408513da	4.1586733
55	0x4011bc77	2.277128
56	0xc096f7a7	-4.717731
57	0x3f3283e7	0.69732517
58	0x412168ab	10.088054
59	0x413cf4ac	11.809734
60	0x40237fc5	2.5546734
61	0xc011bced	-2.277156
62	0xc005a430	-2.0881462
63	0x3d932332	0.07184447
64	0x408e9bd0	4.45652
65	0x3f69aead	0.9128216
66	0x3f81868e	1.0119188
67	0x3f856db5	1.0424105
68	0x3f3f8fae	0.7482861
69	0x40324fa7	2.7861116
70	0x3fd167fd	1.635986
71	0x3f020928	0.5079522
72	0x3f2009fb	0.6251523
73	0x3fd9dea9	1.7021075
74	0xbefb56c4	-0.49089634
75	0xbfbbd1de	-1.4673421
76	0x401d4e52	2.4579053
77	0xbf8d4b52	-1.1038611
78	0x3fd554f6	1.6666553
79	0xbee6fbfb	-0.4511412
80	0x40a2b2c5	5.0843225
81	0x4075b00a	3.8388696
82	0xbff76b05	-1.9329535
83	0xbf1c454e	-0.6104325
84	0xbda7c2ae	-0.08191429
85	0x4099d329	4.8070264
86	0x40787464	3.882104
87	0x40023ab6	2.0348334
88	0xbf87b045	-1.0600668
89	0xbe945ab0	-0.2897544
90	0x40a31daf	5.0973735
91	0xbfc3aabb	-1.5286478
92	0x3e9a5cf3	0.3014904
93	0x3f854f1b	1.0414766
94	0x3eb91d86	0.36155337
95	0xbf4ac27e	-0.7920302
96	0x4083676c	4.1063747
97	0xbf273f19	-0.65330654
98	0xbf230428	-0.63678217
99	0x3eb94686	0.36186618
100	0x3f624790	0.88390446
101	0x3fd85028	1.6899462
102	0x3fe86f60	1.8158989
103	0xbe630130	-0.22168422
104	0x3f1c4fab	0.61059064
105	0x3fb9c929	1.4514514
106	0x4128eda8	10.558022
107	0x413a6457	11.649497
108	0x40fbe06f	7.8711467
109	0x41ae9ab7	21.825544
110	0x4183fb0f	16.497587
111	0x4150995f	13.037444
112	0x41d45094	26.539345
113	0x41117da0	9.09317
114	0x4041e94b	3.029864
115	0x414c64da	12.774622
116	0x41235266	10.207617
117	0x416461db	14.2738905
118	0x4041a2b5	3.0255558
119	0x41af0a44	21.880013
120	0x3f659077	0.8967356
121	0xbda9d621	-0.08292795
122	0x3f8a4793	1.0803093
123	0xbe335210	-0.17511773
124	0xbee856ed	-0.4537882
125	0x3ee03afc	0.43795002
126	0xbd3691ed	-0.04457276
127	0xbd7639f9	-0.06011388
128	0x405134c8	3.2688465
129	0x4004269b	2.0648563
130	0xbe786fd1	-0.24261405
131	0xbf47eb0c	-0.7809303
132	0x3f853b22	1.0408671
133	0x3f077a6c	0.52921176
134	0x3f76c7ed	0.9639881
135	0xbdd2048e	-0.10254775
136	0x3f2b1ea9	0.6684366
137	0x3f2e61c2	0.68117917
138	0x3e5fc1d3	0.21851282
139	0xbe8ca978	-0.27473044
140	0xbf1159e1	-0.5677777
141	0x3d899193	0.06717219
142	0x3e6c47e6	0.23074302
143	0xbf52b5c0	-0.8230858
144	0x4013e101	2.3106081
145	0x3df9f260	0.122044325
146	0x3f3b7f2f	0.7324094
147	0x3e7401a2	0.23828748
148	0xbf47e66e	-0.7808598
149	0xbeca4477	-0.3950536
150	0xbee03619	-0.43791273
151	0x409b722c	4.857687
152	0x3f65c464	0.89752793
153	0xbfa08a60	-1.2542229
154	0x3fdb0f24	1.7113996
155	0x3fe6f486	1.8043373
156	0x3f997db8	1.1991491
157	0x3f91af05	1.1381537
158	0x3f42b509	0.7605749
159	0x3f7a768f	0.97837156
160	0x41046387	8.274299
161	0x3fa26565	1.2687193
162	0x4004646a	2.0686288
163	0x3feee1c5	1.8662649
164	0x3f6a6be3	0.9157087
165	0x4049615d	3.1465676
166	0xbc969a13	-0.018384015
167	0x40c28bb5	6.079554
168	0x413b185a	11.693445
169	0xbf84126c	-1.0318122
170	0xbf0921bd	-0.53567106
171	0x40b3d253	5.6194243
172	0x402466ca	2.5687737
173	0x40acc8c0	5.3995056
174	0x402b6027	2.6777437
175	0x403c7b51	2.9450266
176	0x41a9645d	21.174006
177	0x408a5beb	4.3237205
178	0x3f2fd913	0.68690604
179	0x40e67167	7.201343
180	0x3f8a90f0	1.0825481
181	0x40a92c64	5.286669
182	0xbc452b93	-0.012034315
183	0x3ff5d34e	1.920511
184	0xbf41cbe6	-0.7570175
185	0xbfc260fd	-1.5185848
186	0x3ebd346e	0.36954063
187	0xbe9318ab	-0.28729758
188	0x3fa4208b	1.2822431
189	0xbe5266b6	-0.20546994
190	0xbea5dc1a	-0.32394487
191	0x3fdad00f	1.7094744
192	0x40cac295	6.3362527
193	0x4000b6e3	2.0111625
194	0x3e87946f	0.26480433
195	0xbedb889a	-0.42877656
196	0xbefd50fa	-0.49475843
197	0x3fc5cda6	1.5453384
198	0x3f4b5ef8	0.79441786
199	0x3e7c749c	0.24653858
200	0x3f0dbae9	0.5536333
201	0x3fbdda3d	1.4832226
202	0x3f42e245	0.7612651
203	0x3fd6189d	1.6726261
204	0x3fa7819e	1.3086431
205	0x3e31e31c	0.17371792
206	0x3faa17bd	1.3288494
207	0xbdf3b367	-0.11899453
208	0x40719496	3.774694
209	0x3febdbf4	1.8426499
210	0x3e8ee99c	0.27912605
211	0x403acc83	2.9187324
212	0x40556878	3.3345013
213	0x3f506b92	0.8141414
214	0x3fcd8820	1.6057167
215	0x4013d9e3	2.3101737
216	0x3fd9cd30	1.7015743
217	0xc00dbd6c	-2.2146864
218	0x3f8caa60	1.0989494
219	0x400044c5	2.0041974
220	0x406a4b5c	3.6608496
221	0x40ea4f41	7.3221745
222	0x3fe37c5c	1.7772326
223	0x3fe6ca38	1.8030462
224	0x4108a6df	8.54074

module.A_2 f4 [7, 7]
0	0x4280f020	64.468994
1	0x418010e7	16.008253
2	0x412075cc	10.028759
3	0x41403ee4	12.015354
4	0x4117cf9d	9.488187
5	0x413b6824	11.712925
6	0x409536b9	4.66293
7	0xbf0fdc71	-0.5619574
8	0x400744ce	2.1135745
9	0x3f03fd34	0.5155823
10	0x3f350878	0.7071605
11	0x3e5b2586	0.21401033
12	0x3eed2b66	0.46322173
13	0x3f956bd8	1.1673536
14	0xbe1e73a2	-0.15473798
15	0x3fd96766	1.698468
16	0x4085347d	4.1626573
17	0x3facbfbb	1.3496011
18	0x3fd43428	1.6578417
19	0x3f902733	1.1261963
20	0x3f34acf3	0.705764
21	0x3f23a38a	0.63921416
22	0x3ea7aac6	0.32747477
23	0xbf620a93	-0.88297385
24	0x40baf7ad	5.842734
25	0x40090cd8	2.141409
26	0x3f0657cc	0.5247772
27	0x3f56d080	0.83911896
28	0x3eeb0cca	0.45908195
29	0x3ecfaf9a	0.4056366
30	0x4001212f	2.0176504
31	0x3fd3e095	1.6552912
32	0x408034e1	4.006455
33	0x3f3a53fe	0.7278441
34	0x3fea156e	1.828779
35	0xbf176c66	-0.5914978
36	0x3f01d746	0.50719106
37	0x3fa5c007	1.2949227
38	0x3daf33da	0.08554812
39	0x3f9509f1	1.1643659
40	0x40304a47	2.7545335
41	0x3f1fe711	0.62461954
42	0x3f014276	0.50492036
43	0x3e9480ae	0.29004425
44	0x3f08fbfc	0.535095
45	0xbe51811e	-0.2045941
46	0xbec0218f	-0.37525603
47	0xbdd69d02	-0.104791656
48	0x40325a40	2.7867584

module.A_3 f4 [4, 4]
0	0x412a9436	10.661184
1	0x40821d14	4.0660496
2	0x404c4314	3.1915941
3	0x406151b5	3.520612
4	0x3f9ccafc	1.2249446
5	0x409a931a	4.8304567
6	0x3f47cbc4	0.78045297
7	0x3feac2ef	1.8340739
8	0xbe8365c0	-0.25663567
9	0x3e1a0a0d	0.15042897
10	0x3f8c6861	1.0969354
11	0x3d3a1730	0.04543227
12	0x3f0d9866	0.55310667
13	0x3e9bcebd	0.30431166
14	0x3f4d4836	0.8018831
15	0x402fef11	2.7489665

module.A_4 f4 [2, 2]
0	0x3f1af915	0.6053632
1	0x3c4328fb	0.011911626
2	0x405e5567	3.4739625
3	0x41fa3141	31.27405

module.gconv1.fc.weight f4 [4, 2]
0	0x3e6479fa	0.22312155
1	0xbd93df5f	-0.07220339
2	0x3dec4e9e	0.115384325
3	0x3e46f099	0.19427718
4	0x3b770084	0.0037689516
5	0x3df22b3f	0.11824655
6	0xbda2845d	-0.079354025
7	0x3e05da27	0.130715

module.gconv1.fc.bias f4 [4]
0	0xc1dd2c88	-27.646744
1	0xc1e0fe8d	-28.124292
2	0xc2207409	-40.113316
3	0x419f0e8d	19.882105

module.pool1.fc.weight f4 [15, 29]
0	0xc07666f9	-3.850035
1	0xc0027a05	-2.0386975
2	0xbf806f02	-1.0033877
3	0x3f7ef5ca	0.99593794
4	0x3fe46cc8	1.7845697
5	0x404c8322	3.1955037
6	0x400d9a06	2.2125258
7	0x3e502182	0.20325282
8	0x3f4a083a	0.789188
9	0x3f99a83d	1.2004467
10	0x3eebe944	0.46076405
11	0xbf74e86e	-0.9566716
12	0x3fbfb13d	1.4975964
13	0xbf811a2f	-1.0086116
14	0xbf01da43	-0.50723666
15	0xbe9b0be0	-0.30282497
16	0x3fe75c0c	1.8074965
17	0xc01bb730	-2.4330559
18	0xbf8bbbac	-1.0916648
19	0xbff9a035	-1.9502016
20	0x3fea985d	1.8327748
21	0x3c09c449	0.008408614
22	0x3f8f6185	1.1201636
23	0xc03a7404	-2.913331
24	0xbf20ebba	-0.6285969
25	0x3fe75ecc	1.8075805
26	0x40587d72	3.3826566
27	0xbfe67cf3	-1.8006881
28	0x3ec481f4	0.38380396
29	0xbffdcc71	-1.9828016
30	0xc04c1906	-3.1890273
31	0xbe91eacb	-0.28499445
32	0xc023b6e3	-2.5580375
33	0xbec32999	-0.38117674
34	0x3ff17d61	1.8866388
35	0x3f1c9e16	0.6117872
36	0xbe7a11ce	-0.24420854
37	0xbf02b57e	-0.51058185
38	0x3fc98f0c	1.574678
39	0xbfc71ff0	-1.5556622
40	0x3f816094	1.0107598
41	0x3eddf834	0.43353426
42	0x3ff5cf92	1.920397
43	0xbf5ae230	-0.85501385
44	0x3fbb8f47	1.46531
45	0xbeceab2d	-0.40364972
46	0x3f8a8100	1.0820618
47	0x3f795474	0.9739449
48	0x3f8c1b28	1.0945787
49	0xbe58b5dc	-0.21163124
50	0xc005e9cb	-2.0923946
51	0xbf152dfa	-0.5827328
52	0x40819e28	4.050556
53	0x4011ef58	2.2802334
54	0xc06d946f	-3.7121847
55	0xbea61a3f	-0.324419
56	0x3e909f61	0.28246596
57	0x3fab2608	1.3370981
58	0x40a34bda	5.103009
59	0x4066b828	3.60499
60	0x3fbb729b	1.464435
61	0xbffb439b	-1.9630007
62	0xbf6cd5bc	-0.9251363
63	0xc03e2fa7	-2.9716585
64	0xc0108092	-2.2578473
65	0x3ead74c9	0.33878163
66	0xbfc5622d	-1.5420586
67	0xbf569812	-0.8382579
68	0xbfe64cc9	-1.7992183
69	0xbed38bc0	-0.41317558
70	0xbffed6da	-1.9909317
71	0x3fc6c32c	1.5528312
72	0xbe38621f	-0.1800618
73	0xbee99403	-0.45620736
74	0x3e99bd3a	0.3002718
75	0x4046dcd6	3.1072288
76	0xbe208bdb	-0.1567835
77	0x3f469061	0.77564055
78	0xbf1604b1	-0.5860091
79	0x3f9b8833	1.215094
80	0x4003abae	2.0573535
81	0x3f508863	0.8145811
82	0x3f7d7fca	0.99023116
83	0x3e208f8d	0.1567976
84	0xc00cbe9d	-2.199134
85	0x3e67b497	0.22627483
86	0xbf95dc34	-1.1707826
87	0x3f4bd2a2	0.79618275
88	0x3f0253ea	0.5090929
89	0x3fb1045b	1.3829454
90	0x3e69a062	0.22815087
91	0x3f50cff9	0.8156734
92	0xc01d92c7	-2.4620836
93	0x3f31382a	0.69226325
94	0xbefb5c93	-0.49094066
95	0x3fd8054b	1.6876615
96	0xbfaf6d74	-1.3705277
97	0x3fb2170f	1.3913287
98	0xbfb0ad89	-1.3802959
99	0xbec7e05f	-0.3903837
100	0x3ece2393	0.40261516
101	0x40237d92	2.5545392
102	0xc0277aaf	-2.616863
103	0x3d8b08ba	0.06788774
104	0x3fa76e3e	1.3080518
105	0x3fbafaa8	1.4607744
106	0xbf13b3f7	-0.5769648
107	0xc04ff704	-3.2494516
108	0x3ed2991b	0.41132435
109	0xc0230198	-2.5469723
110	0x3f182d26	0.5944389
111	0x3fd08019	1.6289092
112	0xbface0b1	-1.350607
113	0x3eba2f95	0.36364427
114	0xbfe9fd87	-1.8280495
115	0x3fbb2ddc	1.462337
116	0xbeeeef7f	-0.46667096
117	0xbffccc86	-1.9749916
118	0xc020c0ec	-2.511775
119	0xbfdfe89f	-1.7492865
120	0xc09a8c4e	-4.829627
121	0x3fae6d25	1.3627058
122	0xbe872666	-0.26396483
123	0xbfa0874e	-1.2541292
124	0xbfb03d05	-1.3768622
125	0x3f42ff1a	0.76170504
126	0x3e616207	0.2201005
127	0x3fd3e384	1.6553807
128	0xc02096f0	-2.5092125
129	0x3f94dda9	1.1630145
130	0xbf14ef4a	-0.58177626
131	0x404b5323	3.1769493
132	0x3e1217b8	0.1426686
133	0x400606ac	2.0941572
134	0xc02d68fc	-2.7095327
135	0x3e2db598	0.16963804
136	0x3ff84f82	1.9399264
137	0x403c545e	2.9426494
138	0x3d7b9d0a	0.06142906
139	0xc00d4c92	-2.2077985
140	0x3fcabb49	1.5838405
141	0x40b2c381	5.586365
142	0x3edce0af	0.4314017
143	0xbff5f9ad	-1.921682
144	0x3f9e50c7	1.2368401
145	0xc03f8238	-2.992323
146	0xc0b2528e	-5.5725775
147	0xbe7eca41	-0.24881841
148	0xbf4bfe4e	-0.79684913
149	0x3ff996d7	1.9499158
150	0xbfd9ceec	-1.7016273
151	0x3f491950	0.7855425
152	0xbef60821	-0.48053077
153	0xbfa54c22	-1.2913859
154	0xbf054ed7	-0.52073425
155	0x3f042291	0.51615244
156	0x40085e80	2.1307678
157	0xbe7c1cd8	-0.24620378
158	0x3fae2f00	1.3608093
159	0xbfb5e5af	-1.4210719
160	0xbfafa7bc	-1.3723063
161	0x3f32393b	0.69618577
162	0x3ff2dff4	1.8974595
163	0xbfac0ce6	-1.3441436
164	0xbfaca5fa	-1.3488152
165	0x3f78707e	0.9704665
166	0x40636575	3.5530674
167	0x3f394621	0.72372633
168	0x3f8da1ce	1.1065004
169	0x3fb88b85	1.4417578
170	0x3eec1614	0.46110594
171	0x3f6953f3	0.9114372
172	0x3cc8e960	0.024525344
173	0x3eb756e5	0.35808483
174	0x3f43fec2	0.76560605
175	0xbd760042	-0.06005884
176	0xbea113a1	-0.31460288
177	0xbe2654c7	-0.16243277
178	0xbfc356f6	-1.5260913
179	0xbf158599	-0.5840698
180	0xbfa0c1b0	-1.2559109
181	0xbfe1379d	-1.7595097
182	0xbe3dede3	-0.18547778
183	0x3e69ef61	0.22845222
184	0x3ed867f0	0.42266798
185	0x3fa4aab6	1.2864597
186	0x3e3413c0	0.17585659
187	0x3febe8d3	1.8430427
188	0x3fdc69be	1.721977
189	0xbfab8c9e	-1.3402288
190	0x3cdfeb63	0.02733392
191	0x3fb102d7	1.3828992
192	0x4005161f	2.0794752
193	0x403b0a17	2.9224908
194	0x3fd2395c	1.6423755
195	0x402b720b	2.6788356
196	0x3fcaaa13	1.5833153
197	0xc07ecfc7	-3.9814317
198	0xc053e29a	-3.3107057
199	0x3faddec1	1.3583604
200	0x3f9c57c7	1.2214288
201	0xc080c28d	-4.023749
202	0xc061c96c	-3.5279188
203	0x3fa18eb5	1.2621676
204	0x3ffe1018	1.9848661
205	0x3fe4ed1f	1.7884864
206	0x406f25db	3.7366855
207	0x3f811f23	1.0087627
208	0x3d892402	0.06696321
209	0x3ef44b4b	0.47713694
210	0x401af87d	2.4214165
211	0x3f2ac883	0.66712207
212	0xbfd8d652	-1.6940405
213	0xbf629033	-0.8850128
214	0x408464f3	4.137323
215	0xbf74f917	-0.9569258
216	0xc038c807	-2.8872087
217	0xc002287c	-2.033721
218	0x404a82a7	3.1642244
219	0xbf978014	-1.1835961
220	0xbfcb438e	-1.5879991
221	0xbff5590d	-1.9167801
222	0x4042d577	3.0442789
223	0xc04cea80	-3.2018127
224	0xbe9e4fe2	-0.3092032
225	0x3e42a3f8	0.19007862
226	0x3f2ef886	0.68347967
227	0xbe181445	-0.14851482
228	0xc04423a9	-3.0646765
229	0xc02220fb	-2.533263
230	0xbf7fb150	-0.9987993
231	0xbfd36c7d	-1.6517483
232	0xc010f439	-2.2649062
233	0xbf4f15cf	-0.8089265
234	0x3ecbdde9	0.39817742
235	0x3fac081a	1.3439972
236	0x3f1a14ef	0.6018819
237	0x3fef37e7	1.8688935
238	0x3f62da34	0.886142
239	0xc025340b	-2.5813015
240	0x4001ee21	2.0301592
241	0x3f02f81e	0.51159847
242	0x3f904383	1.1270603
243	0xbff6cc2d	-1.928106
244	0x3f53bf23	0.82713526
245	0xbf3570f6	-0.7087549
246	0xbe47217c	-0.19446367
247	0xbd8ca59f	-0.06867527
248	0x3e729a72	0.23691729
249	0xc02580df	-2.5859907
250	0x3e33b79e	0.17550513
251	0x3dbf01e2	0.09326531
252	0x3f2c5847	0.673222
253	0xc013bb79	-2.3083174
254	0x3f821365	1.0162169
255	0xc0323e3d	-2.7850487

module.pool1.fc.bias f4 [15]
0	0x418b86a0	17.440735
1	0xc18200b6	-16.250347
2	0xc13f14ce	-11.942579
3	0x41a36eee	20.429165
4	0x41008a8d	8.033826
5	0x42298350	42.378235
6	0x419d32cf	19.649809
7	0xc26f4ed6	-59.82699
8	0xc295af7b	-74.842735
9	0xc22742aa	-41.8151
10	0x4171a58a	15.102915
11	0x3ef6fce9	0.4823983
12	0x3faee1fa	1.3662713
13	0x41af28da	21.894947
14	0xc15e13ad	-13.879804

module.gconv2.fc.weight f4 [8, 4]
0	0xbe97e0a6	-0.2966358
1	0xbe05196d	-0.1299798
2	0x3e0d5091	0.13800265
3	0x3e94fa56	0.2909724
4	0xbd764d00	-0.060132027
5	0x3db490ba	0.08816667
6	0x3ee129d1	0.43977216
7	0x3edf69e2	0.4363547
8	0xbc9aa3f1	-0.018877001
9	0x3e88f8b0	0.26752234
10	0x3e230f91	0.15923907
11	0x3d16e46d	0.036838938
12	0x3d7b4f53	0.061354946
13	0xbec88194	-0.3916136
14	0xbe3dbf22	-0.18529943
15	0xbd2ef6b5	-0.042715747
16	0x3e9202a6	0.28517646
17	0x3e468147	0.19385253
18	0x3d0df51e	0.03465759
19	0x3d4b821a	0.04968462
20	0x3e52ded2	0.20592812
21	0x3e9523b5	0.29128805
22	0xbf07253e	-0.527912
23	0xbec56329	-0.38552216
24	0xbeb49dea	-0.3527673
25	0x3ebfd61b	0.37468037
26	0x3cfd4cad	0.03092035
27	0xbe8ecf3f	-0.2789249
28	0x3f26cd80	0.6515732
29	0xbec13c67	-0.37741396
30	0x3de602ca	0.11231001
31	0x3d929972	0.071581736

module.gconv2.fc.bias f4 [8]
0	0x3dc750fa	0.09732242
1	0xc0cd9fc8	-6.4257545
2	0x40f790cb	7.736425
3	0xc109ca68	-8.611916
4	0x40071ce8	2.1111393
5	0xc1100d20	-9.003204
6	0xc174092f	-15.252242
7	0xbe55792a	-0.20847002

module.pool2.fc.weight f4 [7, 15]
0	0xbd45b8a7	-0.0482718
1	0x3ef6c1a6	0.48194617
2	0xbf8347fb	-1.0256342
3	0xbe14e286	-0.14539537
4	0x3f673288	0.9031148
5	0xbf8ae009	-1.084962
6	0x3f137c4f	0.57611555
7	0x3e136a15	0.14395936
8	0x3f59f78d	0.8514336
9	0xbf378c72	-0.7169868
10	0x3f79f859	0.97644573
11	0x3e46c41a	0.19410744
12	0x3f1afae8	0.605391
13	0xbf42e9b2	-0.7613784
14	0xbe2b6435	-0.16737445
15	0x3e34d97a	0.17661086
16	0x3e1e29e1	0.15445663
17	0x3dca2a23	0.09871318
18	0x3d92c6a8	0.07166797
19	0xc0289b53	-2.6344802
20	0x3d1027d2	0.035194226
21	0xc02ccc51	-2.6999705
22	0xbe5e0715	-0.21682389
23	0xba021cb8	-0.0004963386
24	0x400e5e97	2.2245233
25	0xbe4a7dee	-0.19774601
26	0x3e0eec68	0.1395737
27	0xbf6ff982	-0.93740094
28	0xbf2036ff	-0.6258392
29	0x3e89234c	0.26784742
30	0xbf62d6f0	-0.8860922
31	0x3ea8cb9c	0.32967842
32	0xc0055ec6	-2.0839095
33	0xbd613529	-0.054982338
34	0x3e821e12	0.25413567
35	0xbf7fa108	-0.9985509
36	0x3e06dcc4	0.13170153
37	0xb84c2f22	-4.8681286e-05
38	0xc02783a1	-2.617409
39	0x3b2f8357	0.0026781166
40	0x4019e4d7	2.4045923
41	0xbf028caa	-0.50995886
42	0x3f8d9556	1.1061199
43	0x3fbb6629	1.4640552
44	0xbcf92139	-0.03041135
45	0x3f3f68b0	0.74769115
46	0x3eb0e9ee	0.34553474
47	0x3e105c84	0.14097792
48	0x3f36d0e6	0.71412504
49	0x3e52ce75	0.2058657
50	0x3f993c56	1.1971538
51	0xbe70eed5	-0.23528607
52	0xbe2cc5b8	-0.16872299
53	0xbe9db6c2	-0.30803496
54	0x3f4f9613	0.8108837
55	0xbf2a91e0	-0.6662884
56	0xbea23193	-0.31678447
57	0xbe3ae31a	-0.18250695
58	0x3e63e737	0.2225617
59	0xbf0d449c	-0.55182815
60	0x3f5f5fc3	0.87255496
61	0x3eb593f9	0.35464457
62	0x3ff38934	1.9026246
63	0xbf02710a	-0.50953734
64	0xbf1b566a	-0.6067873
65	0xbf6f0187	-0.93361706
66	0x3f4b5dd0	0.7944002
67	0xbdff4fee	-0.12466417
68	0xbed3438d	-0.41262475
69	0x3e9e77e0	0.30950832
70	0x3ecfe209	0.4060214
71	0x3f6ea099	0.932138
72	0xbeadba51	-0.3393121
73	0x3e22f780	0.15914726
74	0xbec2e2c0	-0.38063622
75	0xbf1b5038	-0.6066928
76	0xbf0259c8	-0.50918245
77	0x3fc0aa8e	1.5052049
78	0xbe90f6d5	-0.28313318
79	0x3fcfdc28	1.6239061
80	0x3fb9e1b3	1.4522003
81	0x3df6e080	0.12054539
82	0x3e885472	0.26626927
83	0x400a5d7d	2.161956
84	0xbe833760	-0.25628185
85	0xc04aeaa3	-3.170571
86	0xbea1c283	-0.31593713
87	0x3f4a5be4	0.79046464
88	0xbf9c0010	-1.2187519
89	0x40026491	2.037388
90	0xbf5d0719	-0.86338955
91	0xbeccf9f4	-0.4003445
92	0x3c857a0c	0.016293548
93	0xbcdae529	-0.0267206
94	0xbec40d8b	-0.38291582
95	0xbe828f44	-0.25499928
96	0x3db2c71e	0.08729385
97	0x3db55cf2	0.088556185
98	0x3f90ac84	1.1302648
99	0xbf719c16	-0.94378793
100	0xbdbac8f6	-0.091203615
101	0x3cc52fc4	0.024070628
102	0xbf27d93e	-0.6556586
103	0xbfb13f96	-1.384753
104	0x3eaf6416	0.34256047

module.pool2.fc.bias f4 [7]
0	0xc11816d3	-9.505572
1	0x40839b2a	4.112691
2	0x40dbda5b	6.8704047
3	0xc10de9be	-8.869566
4	0xc0e6744b	-7.201696
5	0x40faffdc	7.843733
6	0x41590908	13.564705

module.gconv3.fc.weight f4 [16, 8]
0	0x3fac9ec8	1.3485956
1	0x3f053895	0.5203946
2	0xbfddca24	-1.7327313
3	0x3f9e0b75	1.2347246
4	0xbe9b5fda	-0.30346566
5	0xbebe2ca5	-0.37143436
6	0xbe8783d2	-0.26467758
7	0x3f0f6a0b	0.56021184
8	0x3c4d2e28	0.012523212
9	0xbf738b4a	-0.95134413
10	0x3e82c062	0.255374
11	0xbf9445e1	-1.1583825
12	0x3f519426	0.8186668
13	0xbf08c334	-0.53422856
14	0xbf25a358	-0.6470237
15	0xbf6990c2	-0.9123651
16	0x3f3a53f9	0.7278438
17	0xbe3ceae1	-0.18448974
18	0xbf18c006	-0.59668005
19	0x3e0a5d9a	0.13512269
20	0xbf3cb2ce	-0.73710334
21	0xbf5aead5	-0.85514575
22	0x3e4c89c7	0.19974433
23	0xbf2379a9	-0.63857514
24	0xbf9cdb3f	-1.2254409
25	0x3f7b297c	0.98110175
26	0x3e52c8e8	0.20584452
27	0xbf8c7938	-1.0974493
28	0xbf21127b	-0.62918824
29	0x3f550476	0.8320993
30	0x3f0a34e7	0.5398697
31	0x3f5591d4	0.8342564
32	0xbf2bfcbc	-0.6718252
33	0x3d8caf97	0.068694286
34	0xbf78189f	-0.9691257
35	0xbf2f89f1	-0.68569857
36	0xbf1636c4	-0.58677316
37	0x3e9cb583	0.30607232
38	0xbf41c43b	-0.7569005
39	0x3f4a12af	0.7893476
40	0x3f125cc0	0.57172775
41	0x3e7148a5	0.23562868
42	0x3ea5b583	0.32365045
43	0x3f717836	0.9432405
44	0x3fb5b346	1.4195335
45	0x3dd4494e	0.10365544
46	0x3e962519	0.29325178
47	0x3f3b6955	0.732076
48	0xbf122272	-0.5708381
49	0x3e6ef38c	0.23335093
50	0xbeaeace5	-0.34116283
51	0x3e2ce78b	0.16885202
52	0xbe2eb2e6	-0.17060432
53	0x3f9f174d	1.2428986
54	0x3f0c37ac	0.5477245
55	0x3f5a64df	0.8531017
56	0xbf92d687	-1.1471719
57	0x3f2062d3	0.62650794
58	0x3f19f81c	0.6014421
59	0x3f3062d5	0.68900806
60	0x3f9889df	1.1917075
61	0x3e8ae9b9	0.2713144
62	0x3e155dd0	0.14586568
63	0x3d95a463	0.07306745
64	0x3f6461cc	0.89211726
65	0xbe89c67a	-0.26909238
66	0xbfc98375	-1.5743243
67	0xbe570a1d	-0.20999952
68	0xbf129a40	-0.57266617
69	0x3f2b12d0	0.6682558
70	0xbe10cc6e	-0.14140484
71	0x3f8040e1	1.00198
72	0x3f25a827	0.64709705
73	0xbdc230ad	-0.094819404
74	0x3f9e24b5	1.2354952
75	0xbccc645a	-0.024950195
76	0x3f2e6b4b	0.68132466
77	0xbec5f7be	-0.38665575
78	0x3ee4ff78	0.44726157
79	0xbe78ff6f	-0.2431619
80	0xbfc739ff	-1.5564574
81	0xbe478b5e	-0.19486758
82	0xbd05a572	-0.032628484
83	0x3e46b3f4	0.19404584
84	0x3e8c1e03	0.27366647
85	0xbd61efb3	-0.055160236
86	0xbec51b23	-0.38497266
87	0xbe4da95d	-0.20084138
88	0x3f7fca56	0.99918115
89	0xbfc65b05	-1.5496527
90	0xbc4766ed	-0.0121705355
91	0xbfd1ac3d	-1.6380688
92	0x3f876345	1.057717
93	0x3e8a3b5e	0.2699842
94	0x3c594937	0.013262085
95	0x3eed1b72	0.46310002
96	0x3bda4045	0.0066604936
97	0x3f3afea4	0.730448
98	0x3ec4e5cd	0.38456574
99	0x3fa43f18	1.2831755
100	0x3e43dad7	0.1912645
101	0xbe981079	-0.29700068
102	0x3d197b3e	0.03747105
103	0xbf1e3498	-0.61799
104	0x3ee7b921	0.4525843
105	0x3ea4b953	0.3217264
106	0x3e7e591f	0.24838684
107	0xbfa29881	-1.270279
108	0x3e33a61f	0.17543839
109	0x3e36afb9	0.1784047
110	0xbe55fb0c	-0.20896548
111	0x3e7663fa	0.24061576
112	0xbf383a20	-0.7196369
113	0x3e5c36b6	0.21505246
114	0x3e828b23	0.25496778
115	0x3e6d111f	0.23151062
116	0xbffd00c8	-1.9765863
117	0xbeb3070a	-0.34966308
118	0x3e84da5c	0.25947845
119	0x3f684fe5	0.9074691
120	0xbf88eef4	-1.0697923
121	0xbf342434	-0.7036774
122	0x3ed28bb9	0.41122225
123	0xbf3731b4	-0.71560216
124	0x3d21268b	0.039343398
125	0x3deee816	0.11665361
126	0x3f6eada6	0.93233716
127	0xbd61e3ef	-0.055149015

module.gconv3.fc.bias f4 [16]
0	0xc0e74cf3	-7.228143
1	0xc08a51f0	-4.322502
2	0xbf6dacf5	-0.92842036
3	0xc089e4ac	-4.309164
4	0xc1786ff6	-15.527334
5	0xc0def1ab	-6.9670005
6	0xc0ffb451	-7.9907613
7	0xc103c4cd	-8.235547
8	0xc0cbfbbf	-6.3744807
9	0x3e65c2c6	0.22437581
10	0x3fc60c69	1.5472537
11	0xc09f9d6d	-4.987967
12	0xc055c7e3	-3.340325
13	0xc0b3380e	-5.6005926
14	0xc0dc7e31	-6.890404
15	0xc10715f8	-8.442863

module.pool3.fc.weight f4 [4, 7]
0	0xbe5cf83a	-0.21579066
1	0x3bebac25	0.007192152
2	0x3f029e6e	0.51022995
3	0x3d1a7c93	0.03771646
4	0x3e90316c	0.28162706
5	0xbe4140f1	-0.1887243
6	0x3e5859f5	0.21128066
7	0x3debfbef	0.11522662
8	0x3f5a616d	0.8530491
9	0xbe81e3fa	-0.25369245
10	0x3cce0797	0.025150103
11	0xbe17ab42	-0.14811423
12	0xbeb92b74	-0.36165965
13	0x3f7b508f	0.981698
14	0x3e8dfd63	0.2773238
15	0x3f2c668d	0.6734398
16	0x3eb065e4	0.34452736
17	0x3f3da482	0.74079144
18	0xbf5f6aec	-0.87272525
19	0x3f651cfe	0.89497364
20	0xbfa2815a	-1.2695725
21	0xbcb00bb6	-0.02148996
22	0xbf146a0f	-0.5797433
23	0xbf17f79e	-0.5936221
24	0xbe816d05	-0.25278488
25	0x3f4cc841	0.79993063
26	0x3effe847	0.499819
27	0xbe887c95	-0.2665755

module.pool3.fc.bias f4 [4]
0	0xbfa15705	-1.2604681
1	0xc08717bc	-4.2216473
2	0xc0c6dd00	-6.2144775
3	0x414f9f2b	12.976359

module.gconv4.fc.weight f4 [32, 16]
0	0xbcc44199	-0.02395706
1	0xbf005d6c	-0.5014255
2	0x400b21cc	2.1739378
3	0xbf7375ae	-0.9510144
4	0xbf49b23b	-0.78787583
5	0x3e2a40f2	0.16626337
6	0x3f8d6262	1.1045649
7	0x3e98224b	0.29713663
8	0x406de2ee	3.7169757
9	0xbf172076	-0.59033906
10	0x3f93ab1e	1.1536596
11	0xbf8993b5	-1.0748202
12	0xbf18a3e0	-0.59625053
13	0xbdbc6e18	-0.09200686
14	0xbe33d6bf	-0.17562388
15	0xbfa64c0a	-1.2991955
16	0x401a58d0	2.4116707
17	0x3f7fb6a5	0.9988807
18	0xbfa39732	-1.2780516
19	0x3e4f5f7d	0.2025127
20	0x3febb6c3	1.841515
21	0x3ea2451f	0.3169336
22	0x405bb13c	3.4326925
23	0x3d9f75cd	0.077861406
24	0xbf778226	-0.96682966
25	0xc0a3c612	-5.1179285
26	0xc0a1447e	-5.039611
27	0xbe147c17	-0.14500462
28	0x4022c63b	2.543349
29	0xbfa31f73	-1.2743973
30	0x3fe7a0dc	1.8095965
31	0xbef1af91	-0.4720426
32	0xbe8427f4	-0.25811732
33	0x400a7f18	2.1640072
34	0xc073f41e	-3.8117747
35	0xc05d3665	-3.456445
36	0x3f883da3	1.064381
37	0xbde3db91	-0.11125863
38	0x4081660b	4.0437064
39	0x404d04fa	3.2034287
40	0x4008d393	2.1379135
41	0xc0727e0f	-3.788944
42	0xc0bbe181	-5.8712773
43	0xc087e1f6	-4.246333
44	0xbfa23fa4	-1.2675672
45	0xc06e4923	-3.723214
46	0xbd12cf1e	-0.035842054
47	0x3f5c2405	0.8599246
48	0x3fb9cdf4	1.4515977
49	0x4022d5ef	2.5443075
50	0xc0592e18	-3.3934383
51	0x400aacc7	2.1667955
52	0xc06c1d99	-3.6893065
53	0x406ef2fa	3.73358
54	0x3f4cb769	0.7996736
55	0xbf8d0185	-1.1016089
56	0x3f8b803c	1.0898509
57	0xc044c75a	-3.0746675
58	0xbfcd4422	-1.6036417
59	0xbe105fba	-0.14099017
60	0xc02bda1e	-2.6851878
61	0xbf9c8187	-1.2227029
62	0x3f724755	0.94640094
63	0x3fb85065	1.4399534
64	0x3f416817	0.75549453
65	0x3e041e49	0.12902178
66	0x3f4588ff	0.77162164
67	0xbfc807ae	-1.5627344
68	0xbf518577	-0.81844276
69	0x3e15bebd	0.14623542
70	0xc0102290	-2.2521095
71	0xbf068b37	-0.52556175
72	0x3fe717ff	1.8054198
73	0xbdc6559e	-0.09684299
74	0x40504794	3.2543688
75	0x3fd4b0ef	1.6616496
76	0xbeef4064	-0.46728814
77	0xbf54714b	-0.8298537
78	0xbfdae03d	-1.7099682
79	0xbfbf0dbc	-1.4926066
80	0xbfb85df7	-1.4403676
81	0xbf49b64e	-0.787938
82	0xbf864168	-1.048871
83	0xc0158c6e	-2.3366961
84	0x3fa7a189	1.3096172
85	0x4096977a	4.705991
86	0x3f285698	0.6575713
87	0xc06224a4	-3.5334864
88	0xbff30705	-1.8986517
89	0xbff4aad0	-1.9114628
90	0xbf7063b1	-0.93902117
91	0xbfedba51	-1.8572484
92	0x401fc843	2.496598
93	0xbee35ec7	-0.44408247
94	0xbe074ace	-0.1321213
95	0x3fa0c3d6	1.2559764
96	0xbf0e96ee	-0.5569905
97	0xbf19b9c9	-0.6004911
98	0xbfbd4cba	-1.478904
99	0xbe05b5d9	-0.1305765
100	0x3faee01a	1.366214
101	0x3ffd2066	1.9775512
102	0x3dfd2f85	0.12362579
103	0x3f3ec21a	0.74514925
104	0xbfa189a6	-1.2620132
105	0xc06633d2	-3.5969129
106	0x3e465ea2	0.19372037
107	0x3c6b5c93	0.014365333
108	0xbde76c50	-0.11299956
109	0xbf38cc80	-0.7218704
110	0xbfbb66d9	-1.4640762
111	0xbf9e6f54	-1.2377725
112	0xbfe2a72a	-1.7707264
113	0xc03b3446	-2.9250655
114	0xbf9928f3	-1.1965622
115	0xbfb623ad	-1.4229637
116	0x3f82d467	1.022107
117	0xbe7355ea	-0.23763242
118	0x3fbd1277	1.477126
119	0x3fc0b95c	1.5056567
120	0x3f4bab02	0.7955781
121	0x401b3006	2.424806
122	0xbfb45ecc	-1.409143
123	0x3f4838ff	0.7821197
124	0x3f2c8d0c	0.6740272
125	0xc000990d	-2.0093415
126	0xc0100027	-2.2500093
127	0x3d85961b	0.06522771
128	0xc0066f78	-2.1005535
129	0xbf6213d6	-0.8831152
130	0xc01e2475	-2.4709752
131	0xbdc3d02b	-0.09561189
132	0x4007b37f	2.1203306
133	0x401c3424	2.4406824
134	0xbeef110a	-0.46692687
135	0xc0571552	-3.3606763
136	0x3fe08c44	1.7542806
137	0xbfa23ea2	-1.2675364
138	0xbf3fd84a	-0.74939406
139	0x3f3b4d74	0.7316506
140	0x3fe1a695	1.7628962
141	0xbeedce57	-0.46446487
142	0x3fec729d	1.8472477
143	0xc0418a9e	-3.0240855
144	0x401a3a1c	2.4097967
145	0xc036c37f	-2.8556821
146	0xbefdb376	-0.4955098
147	0xbf4ad1a5	-0.7922614
148	0xc08198b7	-4.049892
149	0xc01d4a82	-2.4576726
150	0x40776754	3.8656816
151	0x3dc1fd67	0.09472161
152	0x40120987	2.2818315
153	0x3c4493f6	0.011998167
154	0x40283417	2.6281793
155	0xbffd0f9d	-1.977039
156	0xc0040b45	-2.0631878
157	0x40296665	2.6468747
158	0x3f90ceac	1.1313071
159	0xc0514d53	-3.2703445
160	0x3e905aa8	0.28194165
161	0xbf9e74f8	-1.2379446
162	0x3f58f74f	0.8475236
163	0x40042b29	2.0651343
164	0xbf18e4fc	-0.597244
165	0x3f8bc167	1.0918397
166	0xbf59f342	-0.85136807
167	0x3f96906b	1.1762823
168	0xbfc49fca	-1.5361264
169	0x3ea43552	0.3207193
170	0x3ea2624e	0.31715626
171	0x3f897eb2	1.0741789
172	0x3f6853b1	0.907527
173	0xbe528299	-0.20557632
174	0xc0249e85	-2.5721753
175	0xbe1bcde2	-0.15215257
176	0x3d454a66	0.048166655
177	0x3f1afdda	0.60543597
178	0x3ef87b0f	0.48531386
179	0x3c1ceebb	0.009578402
180	0xc00d67b5	-2.2094548
181	0x3f747ea7	0.95505756
182	0x401ff429	2.4992774
183	0xc000a737	-2.010206
184	0xbe5a3d42	-0.2131243
185	0x3f2e258b	0.68026036
186	0xbfab1158	-1.3364668
187	0xbf637e68	-0.88864756
188	0xc01ab9dc	-2.417594
189	0xbf39910f	-0.72486967
190	0xc04f9dad	-3.2439988
191	0x3f1cf556	0.6131185
192	0x3fba002b	1.4531301
193	0x3c1246a1	0.008927972
194	0xbfa07dc1	-1.2538377
195	0x3ee3bea5	0.44481388
196	0x4034052b	2.8128154
197	0xc02738f0	-2.6128502
198	0xc04fcd20	-3.2468948
199	0x40aff0af	5.4981303
200	0xc072e3b0	-3.795147
201	0xc0ba84d1	-5.828713
202	0xc0e0c494	-7.0239964
203	0x3f8a7d86	1.0819557
204	0x3e9cf6d7	0.30657074
205	0xc1157129	-9.340127
206	0x40706eaf	3.7567556
207	0xbf9eb7f0	-1.2399883
208	0xbf936afc	-1.1517024
209	0xc072ea22	-3.7955403
210	0x400cd148	2.2002735
211	0x402d2ef1	2.70599
212	0xbe96d670	-0.29460478
213	0xbfa92de1	-1.3217126
214	0xbfafd611	-1.3737203
215	0xc03d4941	-2.957596
216	0xbfcf77d7	-1.6208447
217	0x3ee931fe	0.45545954
218	0xbfceeea9	-1.6166583
219	0x3f2dd7a2	0.67907155
220	0x3fe21bf8	1.7664785
221	0x3fd4bf0a	1.66208
222	0x3fa0813d	1.253944
223	0xbf89cfb5	-1.0766512
224	0xc0763c61	-3.8474352
225	0x3edc3305	0.43007675
226	0xc0119f04	-2.2753305
227	0x3f5a1acf	0.85197157
228	0x3e90051c	0.28128898
229	0x3f4b7657	0.7947745
230	0xc072a17a	-3.7911057
231	0x3fd08a98	1.6292295
232	0xc01f808f	-2.4922216
233	0xbeb03e56	-0.3442256
234	0xc089538d	-4.291449
235	0x3fff83d3	1.9962105
236	0xc0342467	-2.8147218
237	0xc08e84dd	-4.4537187
238	0x3fc2fe59	1.5233871
239	0xbfb6a2ed	-1.4268471
240	0xbebfea24	-0.37483323
241	0xbf9e42fa	-1.236419
242	0xbf838e42	-1.0277789
243	0xbeb0e59b	-0.34550175
244	0xbfa904c5	-1.320458
245	0xbdf60cc5	-0.12014154
246	0xbf50fa06	-0.81631505
247	0x3ee6b653	0.45060977
248	0x3fe56029	1.7919971
249	0x401fabc7	2.4948595
250	0xbfd0c232	-1.6309264
251	0x3fc9fc20	1.5780067
252	0xc0344e83	-2.817292
253	0xbfb3f9b1	-1.4060575
254	0x3e77b6fd	0.24190898
255	0xbe258698	-0.16164625

module.gconv4.fc.bias f4 [32]
0	0x40db7d90	6.8590775
1	0x40f4edb1	7.654015
2	0xbdf46a37	-0.119343214
3	0xc1784a80	-15.518188
4	0x4070ef86	3.7646194
5	0x416b6f2f	14.714644
6	0xc175e477	-15.368278
7	0x4065175c	3.5795507
8	0xc207246f	-33.78558
9	0xc0b915ce	-5.7839117
10	0xc1157a64	-9.342381
11	0xc13d7faf	-11.843673
12	0x4050e741	3.2641146
13	0x3fd4a792	1.6613638
14	0x41210368	10.063332
15	0x4192cd18	18.350143
16	0xc10a3316	-8.637472
17	0xc0805f77	-4.0116534
18	0xc2140a13	-37.00984
19	0xc0cc206a	-6.378957
20	0x3fb02f7e	1.3764493
21	0x40a66a9b	5.2005134
22	0xc0d787a8	-6.7353096
23	0xc1bd7af1	-23.68503
24	0xc23e51bd	-47.579823
25	0xc037995c	-2.8687353
26	0xbee8c76f	-0.45464656
27	0x4103c423	8.235385
28	0xc1c1dea6	-24.233715
29	0x408fa486	4.4888334
30	0xc1410cca	-12.065622
31	0xc04baca8	-3.182413

module.pool4.fc.weight f4 [2, 4]
0	0x3eaae9c1	0.33381465
1	0xbf177b3f	-0.59172434
2	0x3f6824b0	0.9068098
3	0xbf1ecd04	-0.6203158
4	0xbd84da5a	-0.0648696
5	0x3da10f3a	0.07864232
6	0xbd6275f2	-0.055288263
7	0x3ec588cc	0.3858093

module.pool4.fc.bias f4 [2]
0	0x40b5ac85	5.6773095
1	0xc094e226	-4.652606

module.gconv5.fc.weight f4 [64, 32]
0	0x3f6fbed7	0.93650573
1	0xc01ca262	-2.447411
2	0x3faa807f	1.3320464
3	0xbfca9cc8	-1.5829096
4	0x3efcb78e	0.4935879
5	0xbf195436	-0.5989412
6	0x40c2c21a	6.086194
7	0x3f09a365	0.53764945
8	0x3f84ad65	1.0365416
9	0xc03ef25a	-2.983542
10	0x3f73ce47	0.9523663
11	0xc023a896	-2.5571647
12	0x3dc1a1e7	0.094547085
13	0xbf6a0354	-0.9141133
14	0x4028487d	2.6294243
15	0xbfe36583	-1.7765354
16	0xbfde3725	-1.7360579
17	0x3f42997e	0.7601546
18	0xc0960099	-4.687573
19	0xbf0866bc	-0.5328176
20	0x40246695	2.568761
21	0x40986202	4.761964
22	0xbf88a855	-1.0676371
23	0x40796f8a	3.8974328
24	0xc0dc426d	-6.8831086
25	0xc005e0f4	-2.091855
26	0xbfdd8664	-1.7306638
27	0x3f265e0a	0.6498724
28	0x3dcc9f0e	0.09991275
29	0x3f6efa67	0.93350834
30	0xc031305a	-2.7685761
31	0x3f7a3740	0.97740555
32	0x3fc0d796	1.5065792
33	0xbfd85ded	-1.6903664
34	0xc11b8f7d	-9.722531
35	0x40f4b486	7.6470366
36	0xc0071504	-2.1106577
37	0xc02391e1	-2.5557787
38	0x404b1779	3.1733077
39	0x3fd2fe8c	1.6483932
40	0xbf697e55	-0.9120839
41	0x3d2c7f7f	0.042113777
42	0xbe8bf397	-0.27334282
43	0xc08660ad	-4.1993012
44	0xbfacb5e7	-1.3493012
45	0xc03ee2b3	-2.9825866
46	0xc09e19b2	-4.9406366
47	0xc0d595cc	-6.6745358
48	0x3f561860	0.83630943
49	0xc0cde1b7	-6.433803
50	0x409bde04	4.8708515
51	0x40456cdc	3.0847692
52	0x3fd61596	1.6725338
53	0x40928861	4.579148
54	0xbe45dca0	-0.19322443
55	0x414f182f	12.943404
56	0xc11a3d72	-9.640001
57	0xc11c9770	-9.786972
58	0xc045feba	-3.0936723
59	0x3ed99fce	0.42504734
60	0xc066f691	-3.6087992
61	0x3efc48a3	0.49274167
62	0x3f4a3ba8	0.7899728
63	0x401d7d35	2.460767
64	0x400bb844	2.1831217
65	0xbfefdf86	-1.8740089
66	0x406d3d37	3.7068613
67	0xbf493229	-0.78592163
68	0xbff5c715	-1.920138
69	0xc0698929	-3.6489966
70	0xbd82c851	-0.063858636
71	0xc01caf62	-2.4482045
72	0x40a08608	5.016361
73	0xc0b398c9	-5.6124005
74	0xc08b8251	-4.359658
75	0xbf15f79a	-0.58580935
76	0xc05bbe84	-3.4335032
77	0x3f8561bb	1.042045
78	0x3ef0d147	0.47034666
79	0xbd6b7d00	-0.057492256
80	0x401799c0	2.3687592
81	0xbebaf7ae	-0.3651709
82	0xbf0c9395	-0.5491269
83	0xbf88cc9d	-1.0687443
84	0xc03a2520	-2.908516
85	0xbfeae6ed	-1.8351723
86	0x3f217be8	0.6307969
87	0xc09c4ecc	-4.8846188
88	0x4111bd06	9.108648
89	0x3e88b4d0	0.2670045
90	0xbd3e8084	-0.04650928
91	0xbd0dbf86	-0.03460648
92	0xc0023ee7	-2.0350893
93	0x3fd2fb91	1.6483022
94	0x401f6a60	2.4908676
95	0x3ebcb71f	0.3685846
96	0xbe0c3cf5	-0.13695128
97	0x3f2c294d	0.6725052
98	0x406809dd	3.625602
99	0x3fe2c7a7	1.7717179
100	0x40032c70	2.0495872
101	0x3f0b8dea	0.5451342
102	0xc046ddb3	-3.1072814
103	0x3f1f4aa9	0.622233
104	0xc01e491d	-2.4732125
105	0xbecbab5f	-0.39779183
106	0x3f28a73f	0.658802
107	0xc063ec91	-3.5613139
108	0xc037b343	-2.8703163
109	0x3fba933a	1.457618
110	0x3f740f11	0.9533549
111	0x3f2786c3	0.65440005
112	0xbd3b82e6	-0.04577913
113	0xc00fa2c0	-2.2443085
114	0x4058804a	3.3828301
115	0x405c39c1	3.441025
116	0x405a7fa2	3.41404
117	0xc008ff6c	-2.1405897
118	0xc08ffd4a	-4.499669
119	0x403a638f	2.9123266
120	0xc09fe5d5	-4.9968057
121	0xbf97fbcc	-1.1873717
122	0x3f05af2f	0.52220434
123	0x40a1c68d	5.055487
124	0x404ccd77	3.2000406
125	0x3f89d452	1.076792
126	0x3f3b95af	0.73275274
127	0xc072184b	-3.7827327
128	0xbff66901	-1.9250795
129	0x3f0b9f95	0.5454038
130	0x3fccb16d	1.5991646
131	0x40801aa0	4.00325
132	0xbf00de88	-0.50339556
133	0xbff48222	-1.9102213
134	0xbf5eb17c	-0.8698957
135	0xc07359e0	-3.8023605
136	0xc0de0a59	-6.938763
137	0xc0564fa9	-3.348612
138	0xc06dfdbd	-3.718612
139	0xbef00af2	-0.4688335
140	0xc17cc335	-15.797658
141	0xc0657ab5	-3.5856144
142	0xc07422c8	-3.8146229
143	0xc091377b	-4.5380225
144	0x40040769	2.0629523
145	0x3f06d595	0.5266965
146	0xc0208bd9	-2.5085356
147	0x40a94846	5.2900724
148	0x406106c1	3.5160372
149	0x3fbf6155	1.4951578
150	0xc0e92b5f	-7.2865443
151	0x40dd462d	6.9148164
152	0xc15677f2	-13.404284
153	0xbed24a64	-0.4107238
154	0x4091511a	4.54115
155	0xc0f8c489	-7.773991
156	0xbef2f51b	-0.47452626
157	0xbf00f5b9	-0.50374943
158	0x40ad818c	5.422064
159	0xbe0572ce	-0.13032076
160	0x3f78775c	0.9705713
161	0x404313b4	3.0480776
162	0xc04122fa	-3.0177598
163	0xc0977d22	-4.734025
164	0x3fdf9f7a	1.7470543
165	0x400610dc	2.094779
166	0xc0cd3beb	-6.413564
167	0x409012c0	4.502289
168	0x3fb715da	1.4303544
169	0xbe857c61	-0.26071456
170	0x400a24a9	2.1584876
171	0x40882440	4.254425
172	0xbf05895a	-0.52162707
173	0xbfcd83f0	-1.6055889
174	0xc08af45d	-4.3423295
175	0xbf21228b	-0.62943333
176	0xbe4a0aa4	-0.19730622
177	0xc0469b42	-3.1032262
178	0xc0212b95	-2.518285
179	0x40154e53	2.3329055
180	0xbe8e6f84	-0.27819455
181	0xbfd42dec	-1.6576514
182	0xc02d4214	-2.707158
183	0xc0c83d3f	-6.2574763
184	0x40c00f1f	6.001846
185	0x3f4f61ea	0.8100878
186	0xbfb4fe05	-1.4140021
187	0xbfc63ef1	-1.5487958
188	0xbea2ffae	-0.31835693
189	0x403bb7b8	2.9330883
190	0x4082f632	4.092553
191	0xc0255870	-2.5835228
192	0x402f38b2	2.7378354
193	0x40a3181a	5.096692
194	0xbfe2b69c	-1.7711978
195	0xc033845a	-2.804953
196	0x3f805183	1.0024875
197	0xc060a1ba	-3.509871
198	0x403768b8	2.8657665
199	0xbdc34a4c	-0.095356554
200	0x3dd57e74	0.1042451
201	0xc0aadc8b	-5.3394217
202	0xc031b330	-2.7765617
203	0x409a3ab0	4.819664
204	0xbfc650af	-1.5493373
205	0x40a5b052	5.1777735
206	0xc09799ec	-4.7375393
207	0xbf9d5b14	-1.229342
208	0x3f9a9905	1.2077948
209	0xc03264ae	-2.787395
210	0xbfc6bf73	-1.5527176
211	0xbf899f84	-1.0751805
212	0x3fb6c2fc	1.4278255
213	0xc0dedfde	-6.9648275
214	0x4000cb6d	2.0124161
215	0xc00175d2	-2.0228162
216	0xc0e44ae9	-7.1341443
217	0x40020d57	2.0320642
218	0xc01b67f9	-2.428221
219	0x4001bb50	2.0270576
220	0x3f3f626e	0.74759567
221	0x40771db1	3.8611872
222	0x40173fb3	2.363263
223	0xc0454c0e	-3.082767
224	0xbedddcb9	-0.4333246
225	0xc0c2e351	-6.0902486
226	0xc0c6d2b8	-6.2132225
227	0xc0ab81f0	-5.3596115
228	0x404fba36	3.2457404
229	0xc03a797e	-2.9136653
230	0xc02599ef	-2.5875204
231	0xc09feb21	-4.9974523
232	0xc08541da	-4.1642885
233	0xc03c1ad3	-2.9391372
234	0xbfe30222	-1.7735026
235	0xc0c48707	-6.141483
236	0x40a67a6a	5.202443
237	0xbea4284e	-0.32062
238	0x3f6914ae	0.9104718
239	0x3f347dd3	0.7050449
240	0xc01f8176	-2.4922767
241	0x407f3eb5	3.9882023
242	0x3fb54f74	1.4164872
243	0xc01c8a81	-2.4459536
244	0x406ebe4d	3.730365
245	0x402503ec	2.5783644
246	0x40247dde	2.5701823
247	0x4032dd2e	2.7947497
248	0x4051afd6	3.2763572
249	0xbfb1f365	-1.3902403
250	0x409ec9af	4.9621196
251	0xc049a28d	-3.1505463
252	0x3febd78b	1.8425153
253	0xc048ed1f	-3.1394727
254	0xbfec4a1d	-1.8460118
255	0x3fed4762	1.8537409

module.gconv5.fc.bias f4 [64]
0	0x412a2af0	10.635483
1	0xc1909e62	-18.077335
2	0xc16fa62e	-14.978071
3	0x418fb15a	17.961597
4	0x41719a13	15.100116
5	0x41511470	13.06749
6	0xc17fdd45	-15.991521
7	0xbfb6e1c0	-1.4287643
8	0xc1c71531	-24.885347
9	0x41a53bd2	20.65421
10	0x4121178b	10.068248
11	0xc038039c	-2.8752203
12	0xc1c5850a	-24.68996
13	0xc08a9198	-4.3302727
14	0xc07fb103	-3.995179
15	0xc18fe10c	-17.984886
16	0x411f7a07	9.967292
17	0xbfc23f73	-1.5175613
18	0xc1977920	-18.934143
19	0xc194d858	-18.605637
20	0x40fcbd04	7.898073
21	0xc1cdf666	-25.745312
22	0x40848104	4.140749
23	0xc0950539	-4.6568875
24	0x413932f4	11.57494
25	0xc1c5de78	-24.733627
26	0xc11e289a	-9.8849125
27	0xc1b74db1	-22.912935
28	0x408ea238	4.457302
29	0x3fd90591	1.6954824
30	0xc011f95a	-2.2808442
31	0x3f0d123d	0.55105954
32	0xc1042d06	-8.260992
33	0x4185c210	16.719757
34	0xc08bc4c1	-4.367768
35	0xc18d2594	-17.643349
36	0xc16f07f9	-14.939446
37	0x40bdf82b	5.936544
38	0xc19670dd	-18.805109
39	0xc1c793df	-24.947203
40	0x4036ac0e	2.8542514
41	0x41cb0c23	25.380926
42	0x415dd51e	13.864531
43	0xc1af82ce	-21.93887
44	0xc13dfda6	-11.874426
45	0xc1029768	-8.161964
46	0x40b0cc05	5.5249047
47	0x41bcfa2d	23.622156
48	0xc12cfea1	-10.812165
49	0xc1aa36fc	-21.276848
50	0x3fb6cf69	1.4282047
51	0xc0838b1c	-4.110731
52	0x4017a184	2.3692331
53	0xc18a2ba8	-17.271317
54	0xc0d66bec	-6.700674
55	0x413846b9	11.517266
56	0x40b5244a	5.66068
57	0xc125f2e5	-10.3718
58	0xc183fc4d	-16.498194
59	0x41aff298	21.993454
60	0xc18f0ffe	-17.882809
61	0xc1978385	-18.939219
62	0x40e6aad1	7.2083516
63	0x40a4ba7c	5.147764

module.pool5.fc.weight f4 [1, 2]
0	0x3dcbb4ca	0.09946592
1	0xbc01a97e	-0.007913945
